Exercise 3/model.tflite (tflite, 150076 bytes, 10 tensors)

sequential_4/conv2d_16/Relu;sequential_4/conv2d_16/BiasAdd;sequential_4/conv2d_18/Conv2D;sequential_4/conv2d_16/Conv2D;sequential_4/conv2d_16/BiasAdd/ReadVariableOp f4 [32, 3, 3, 3]
000000 26 da 6d 38 32 b5 e9 39 fd 06 5b 39 ea 55 f2 b9
       5.670837e-05 0.00044576224 0.00020888071 -0.00046221848
000010 90 74 b4 38 fd c5 31 b9 8a 5a 09 ba 8b 6d b2 39
       8.60478e-05 -0.00016953792 -0.00052396266 0.00034032422
000020 5b 9b ac 37 ae cb b9 39 ad 1f 53 39 af 8f e6 b9
       2.057634e-05 0.00035437703 0.00020134328 -0.0004397607
000030 b3 5e 31 39 cc 38 f6 b6 62 6c 09 b7 6a 8d d3 b7
       0.00016915314 -7.3379833e-06 -8.191071e-06 -2.5219011e-05
000040 86 ca 82 39 98 82 ba b9 57 3b 96 b9 c7 ca 15 b9
       0.00024946424 -0.00035573984 -0.0002865444 -0.00014285288
000050 e0 63 25 b9 ff 13 92 39 77 37 5b 39 07 ac a4 b9
       -0.00015772833 0.00027862188 0.0002090613 -0.00031408688
000060 ca f2 01 3a 55 14 98 39 72 8c 09 ba 9a 0e 40 39
       0.0004957138 0.00029006848 -0.0005247063 0.00018315986
000070 98 1a c9 b9 4b 8f f0 b9 9c d6 fb b8 89 da 02 ba
       -0.0003835752 -0.0004588313 -0.00012008587 -0.0004991671
000080 43 5a 68 39 5c 77 82 39 8c cb 05 3a fa 5a 08 36
       0.00022158869 0.00024884462 0.0005103878 2.0318535e-06
000090 c2 40 1a ba 63 23 37 b9 00 de ff b9 fc db 02 b9
       -0.00058842835 -0.00017465423 -0.00048802793 -0.00012479717
0000a0 fa 46 40 39 d0 c9 c5 b9 9a dc 74 b9 05 ed df 38
       0.00018336988 -0.0003772513 -0.00023351834 0.00010677617
0000b0 ab 87 8c 37 43 bd 16 3a fb 47 17 3a a0 bc 04 b7
       1.6752476e-05 0.0005750248 0.0005770919 -7.911731e-06
0000c0 90 19 ea b9 05 53 cd 38 78 f4 cd b9 22 19 81 39
       -0.00044651004 9.790625e-05 -0.0003928279 0.00024623523
0000d0 76 cf 5e b7 a7 1f 84 b7 c3 c5 b1 b9 b8 a1 cf b9
       -1.3280534e-05 -1.5750365e-05 -0.00033907415 -0.00039602607
0000e0 69 6d e8 b9 14 53 44 b9 45 0b a9 b8 b6 b0 d9 b8
       -0.00044332005 -0.00018722966 -8.060647e-05 -0.00010380281
0000f0 2e 4d 77 b9 72 77 8c b9 f3 7d f8 39 1a 76 d7 b7
       -0.00023584507 -0.00026791875 0.00047396086 -2.5684993e-05
000100 67 b6 c1 b9 00 bb 0c ba bd 00 eb b9 70 ab cc 39
       -0.0003694773 -0.00053684413 -0.00044823243 0.00039037643
000110 f2 70 ff b9 d5 1b 90 38 e8 ae 40 b9 60 83 a8 38
       -0.0004872154 6.871639e-05 -0.00018375705 8.035335e-05
000120 bd e8 d8 39 4a 4e fd 39 ec 42 aa b8 8a 14 10 ba
       0.00041372134 0.0004831425 -8.118697e-05 -0.00054962246
000130 d7 f5 b1 b9 7c ce e1 38 7f 9c ef b9 30 89 fc 38
       -0.00033943236 0.00010767297 -0.0004570223 0.000120418495
000140 fe 0e 5e b9 c4 14 3b 38 3d 85 17 39 47 a4 ba b9
       -0.00021177155 4.4603614e-05 0.00014450117 -0.0003559908
000150 c1 90 2a b9 84 bd ed 39 35 e0 01 ba c6 bf b9 38
       -0.00016266388 0.00045345363 -0.0004954369 8.857208e-05
000160 e9 b5 ea b9 f5 49 3c b9 79 4c 65 b9 4e 10 9d 39
       -0.00044767492 -0.00017956628 -0.0002186763 0.00029957521
000170 99 f3 f1 38 53 d9 7e 38 20 f0 6b 39 21 40 a7 38
       0.00011537149 6.0760718e-05 0.000225008 7.9751255e-05
000180 49 f2 d1 39 7d 6b 82 39 3a 72 c4 39 74 01 ba b9
       0.00040044103 0.00024875617 0.0003746914 -0.00035477767
000190 6d 2a 09 ba b8 85 61 b9 b6 e2 80 b9 a5 6c 01 ba
       -0.0005232457 -0.00021507486 -0.00024582975 -0.0004937149
0001a0 06 65 de 39 9f a3 66 39 0a 0e 45 b8 f1 cb 1a 3a
       0.00042418408 0.00021995463 -4.6981535e-05 0.00059050234
0001b0 87 44 0b ba d7 df ca 39 47 bd 18 3a fa e9 a7 39
       -0.00053126406 0.00038695216 0.00058265444 0.00032027048
0001c0 11 a9 7d b9 bd 44 1b 3a f1 cf cb b9 95 b6 05 b9
       -0.00024190942 0.00059230236 -0.00038874106 -0.00012751886
0001d0 6c f2 23 3a 21 51 e2 39 a6 79 b5 37 f4 12 27 3a
       0.000625408 0.00043166525 2.1633528e-05 0.00063733687
0001e0 4c e4 c4 39 83 10 70 b8 66 29 3a 39 14 f7 02 3a
       0.00037554128 -5.7235837e-05 0.00017753764 0.0004995924
0001f0 e8 d7 b0 39 96 72 86 b9 02 9a e9 b9 51 6e 0d b9
       0.000337302 -0.00025643845 -0.00044555968 -0.00013487904
000200 7f 14 80 39 ae 03 a9 b9 26 45 86 b9 2b 59 8a b9
       0.00024429333 -0.00032236933 -0.0002560999 -0.00026387846
000210 12 71 f3 38 d6 7f 26 38 0e 7d c4 39 22 87 09 3a
       0.00011608204 3.969654e-05 0.00037477206 0.00052462716
000220 e0 44 d1 b8 df 53 c1 39 cf 7a d1 b7 0e 78 18 3a
       -9.9787256e-05 0.00036874317 -2.4971929e-05 0.00058162294
000230 ea bd cd b9 af b4 0f 3a fb ab cc 37 c5 00 04 3a
       -0.00039242144 0.0005481941 2.439878e-05 0.0005035515
000240 c2 45 b8 39 4d 5f 04 3a 55 53 83 39 c9 f2 bd b9
       0.00035147188 0.00050496013 0.00025048354 -0.00036229778
000250 59 4b 11 3a 09 4a 12 3a 03 2a cf 39 1e 4a 96 b9
       0.0005542539 0.000558049 0.00039513418 -0.0002866545
000260 e2 08 16 39 bd 00 78 b8 2d 8b d1 39 cc 17 05 b9
       0.00014308424 -5.9128495e-05 0.0003996728 -0.00012692733
000270 ac e8 8a 38 f5 8d 89 39 58 da f5 b9 81 1e 9d 39
       6.623691e-05 0.00026236442 -0.0004689272 0.000299681
000280 65 6a bd 39 fc 46 f2 39 7e b2 96 39 4c ab ed 39
       0.0003612816 0.00046210724 0.00028743217 0.0004533179
000290 9f 21 86 b9 fb fd d1 b9 30 ef c8 b9 2d e8 af b9
       -0.0002558352 -0.00040052817 -0.0003832518 -0.00033551586
0002a0 24 07 39 b8 b9 a5 2d 39 b9 5c 96 38 6e 47 6c b8
       -4.4114087e-05 0.00016560302 7.169828e-05 -5.633331e-05
0002b0 23 84 a4 37 60 3c 99 39 95 b3 84 b9 11 54 00 3a
       1.9611854e-05 0.00029227417 -0.000253108 0.00048953394
0002c0 06 87 ea 39 a2 1a cf b9 1a 93 3c 38 cf 07 90 b9
       0.00044732558 -0.0003950196 4.4959692e-05 -0.00027471638
0002d0 89 27 93 b9 ec 31 0e 3a 77 6a 3f b9 90 fb fc b8
       -0.0002806748 0.0005424309 -0.0001825484 -0.000120631536
0002e0 a4 ec 18 3a 4e 4c d9 b8 81 00 a3 39 d4 9c 31 b9
       0.0005833602 -0.00010361579 0.00031090158 -0.00016938458
0002f0 83 cb 0b b9 c4 fb c8 39 ab 92 17 b8 8e 7e 30 b9
       -0.00013331887 0.00038334553 -3.61378e-05 -0.00016831813
000300 6f 3e 06 37 ac c8 10 ba eb 90 d8 b9 0d 49 ad 39
       8.001559e-06 -0.00055230665 -0.00041306703 0.00033051558
000310 75 3b d1 38 96 2f 86 b9 a9 ad d4 38 ca 0d 53 b9
       9.976971e-05 -0.00025593926 0.000101412945 -0.00020127665
000320 f1 c0 ac b9 f4 04 d0 b9 e9 89 d2 b9 30 3d 3f 39
       -0.0003295015 -0.00039676542 -0.00040157072 0.00018237974
000330 c2 9f ee b9 a2 b5 af 38 c7 7c be b9 ad 2d 70 b8
       -0.00045513926 8.378482e-05 -0.0003633259 -5.7262998e-05
000340 4c 00 1e 3a ec ec 78 39 18 fd 99 39 88 3a 12 3a
       0.0006027266 0.00023739383 0.00029371004 0.000557818
000350 d1 40 18 3a d6 de b6 37 b5 72 d9 b9 e5 74 cc 39
       0.0005807998 2.1799857e-05 -0.0004147493 0.00038997005
000360 b4 a2 cf b9 e1 da d2 b9 0b ab 26 ba d3 b0 10 3a
       -0.0003960334 -0.000402174 -0.0006357885 0.0005519513
000370 54 f6 d4 b9 2c e9 7b b9 21 4c 87 39 77 0b 37 39
       -0.0004061932 -0.00024024089 0.00025805927 0.00017456511
000380 7d ed 36 39 ef 33 10 3a a7 06 61 39 96 55 d2 b9
       0.00017445344 0.0005500903 0.0002146015 -0.00040118088
000390 cf 48 14 3a e7 02 b4 b9 7b 43 db 38 fe 1b 17 3a
       0.0005656601 -0.00034334438 0.00010455303 0.0005764364
0003a0 5a ac ee b9 1e e4 07 39 8b d8 e0 39 a0 e5 e8 b9
       -0.0004552331 0.00012959584 0.00042885946 -0.00044421572
0003b0 92 cc 6d b9 63 4b f3 39 9c d1 08 ba c3 64 95 39
       -0.0002267829 0.0004640474 -0.00052192225 0.00028494568
0003c0 6e 9b 0e 38 3d b3 d6 39 8d 47 56 b9 46 a1 b7 39
       3.4000193e-05 0.00040950804 -0.00020435285 0.00035024638
0003d0 5d b8 e6 b9 86 9a cc b8 cc cc a1 38 16 de 1a b8
       -0.0004400638 -9.75626e-05 7.715225e-05 -3.6923295e-05
0003e0 14 f7 e4 39 bc 8d a4 39 0b c0 44 b7 bd b3 7a b9
       0.00043671636 0.00031386118 -1.1727224e-05 -0.00023908816
0003f0 c5 a3 9c 39 38 69 0d ba ad 6d 89 b9 fb ad 8c b9
       0.00029876656 -0.0005394402 -0.0002621239 -0.00026832506

sequential_4/conv2d_16/BiasAdd/ReadVariableOp f4 [32]
000000 c4 fa 62 bb 9d 64 fa 3b 58 72 61 bc 2e 58 d3 3c
       -0.0034634331 0.0076413886 -0.013760172 0.025798883
000010 f0 31 db bb ee 25 23 bd 5d ad c7 3b f7 33 6f 3c
       -0.0066893026 -0.039831094 0.0060936646 0.014599792
000020 0c b3 6d bb 4f 83 f6 bb 7a 9d c0 3a 17 67 1d 3d
       -0.003627005 -0.0075229774 0.0014695369 0.038428392
000030 73 37 37 bc 0c 3c e8 3c 10 12 5f bc a0 80 4d 3c
       -0.011182654 0.028348945 -0.013615146 0.012542874
000040 b0 7e b7 3c fd f6 c8 3a c6 66 fc 3c 9a 29 fe 3c
       0.022399276 0.0015332397 0.030810725 0.031025697
000050 6c 3f 4c bc 2a b4 7e 3c 39 52 ec 3c 31 4f 03 bb
       -0.012466293 0.015545884 0.0288478 -0.0020036215
000060 84 66 94 3c fd cd 14 3c da 31 96 3c 87 00 0e 3c
       0.01811529 0.009082315 0.018334318 0.008667118
000070 cf 17 31 bc f2 7d 98 bb 66 ca 9a bc 58 c1 2a 3c
       -0.010808899 -0.0046536857 -0.01889534 0.010422073

sequential_4/conv2d_17/BiasAdd/ReadVariableOp f4 [32]
000000 81 4a d0 bb f5 d6 61 3c 4d 85 1b bc 74 e7 cf 3a
       -0.006356538 0.01378416 -0.009492231 0.0015861825
000010 70 0d f2 3c 05 2e a1 bb 0b 05 26 b9 6d 39 47 3c
       0.029547423 -0.004918816 -0.00015832872 0.0121596875
000020 ac 05 92 3c 4d 0b 87 ba db ad 4e 3c 8d 0b a9 bc
       0.01782497 -0.001030305 0.012614693 -0.02063539
000030 84 8e 61 bc fa 70 b9 bb b4 68 07 ba ea d3 f1 3a
       -0.0137668885 -0.00565922 -0.0005165443 0.0018449996
000040 d8 ea af bc 85 55 38 bc 00 00 00 00 99 b4 4a ba
       -0.021474287 -0.011250858 0.0 -0.00077325996
000050 b3 2e 17 bd 10 a5 95 bb 05 06 2f 3c d1 19 b3 bb
       -0.03690977 -0.004566796 0.0106825875 -0.005465724
000060 3b f9 d8 bc 6a 56 75 ba e4 36 8c 3c 6c dd 45 3b
       -0.02648603 -0.0009358885 0.017116018 0.0030191792
000070 d1 96 9b bb d0 fa b6 3c 0e 4b d4 3b 48 47 c4 3c
       -0.0047482033 0.022336394 0.006478674 0.02395977

sequential_4/conv2d_18/BiasAdd/ReadVariableOp f4 [32]
000000 e2 f9 70 3b f7 23 89 3c 00 00 00 00 57 9b 3f ba
       0.0036770036 0.016740782 0.0 -0.0007309219
000010 c1 b9 d9 bb 21 df 89 3a e1 22 02 3c 6c 61 e7 3c
       -0.006644458 0.0010518768 0.007942886 0.028244697
000020 b5 67 d1 3b 2f fd 29 bc a9 5c 43 3c 8f 64 8d bc
       0.0063905367 -0.010375305 0.011923947 -0.017259864
000030 dc 7f a8 bc 8a 91 d1 3a e1 d9 05 bc 4f 31 1d 3b
       -0.02056878 0.0015988809 -0.008169622 0.002398569
000040 00 00 00 00 fd 5e 20 bc aa 2d 57 bb bc f3 55 bb
       0.0 -0.009788272 -0.0032833614 -0.0032646498
000050 51 a7 cb bb cd 19 af bb 63 e4 cf bb 8b 1a 42 bc
       -0.006215014 -0.005343652 -0.0063443645 -0.011847149
000060 20 de 5f bc 21 23 54 bc fc 75 63 3c 00 00 00 00
       -0.013663799 -0.0129478285 0.01388311 0.0
000070 31 72 be bb 60 83 4a 3c 82 a2 99 3b b5 c6 ff bb
       -0.0058119525 0.012360424 0.004688562 -0.00780567

sequential_4/conv2d_17/Conv2D f4 [32, 3, 3, 32]
000000 03 16 46 3d b4 82 1d 3d 48 e9 68 3c ac 11 4d 3d
       0.048360836 0.038454726 0.014215775 0.05006568
000010 4b 78 b2 3c 1a 25 da 3c b4 26 69 3c dd 7a d6 3c
       0.021785876 0.02662902 0.014230419 0.026181633
000020 d7 fc 82 3d 25 2a 32 bd b2 05 16 bd 06 86 d6 bd
       0.063958816 -0.043497223 -0.036626525 -0.10474782
000030 6d b0 83 bc 9c 19 bb bb 17 88 39 bd 9e f3 41 bd
       -0.016075337 -0.00570984 -0.0452958 -0.047351472
000040 54 98 9f bd 14 8f 7a bd 40 50 88 bd 0d 7e 52 bc
       -0.07792726 -0.061171606 -0.066559315 -0.012847436
000050 a1 5f ca bd bf da 4f bd 85 7a bf bd b8 b8 cc bd
       -0.09881521 -0.050745722 -0.093495406 -0.0999617
000060 9a 19 45 3d 71 de 9d bd e4 4f d3 3c b8 e8 90 3d
       0.04812012 -0.07708443 0.02579493 0.070756376
000070 8b 9d 90 bc d8 14 a4 bd 78 fc 5a bc 99 e0 72 3c
       -0.017653247 -0.08011788 -0.013365857 0.014824056
000080 d8 9d 59 bc 12 92 0f bc 70 24 ba 3d cc 3c 14 3c
       -0.013282262 -0.008762853 0.09088981 0.009047698
000090 c8 0a 9b bd 2b 52 b6 bc d0 54 69 bd 0a a1 aa bd
       -0.07570416 -0.022255978 -0.05696565 -0.08331497
0000a0 a0 e1 c9 bd 86 a2 e1 3b 5e e9 2a bc 8e 89 f9 3c
       -0.09857488 0.0068858294 -0.010431616 0.030461099
0000b0 a5 82 7c bd 21 d9 da 3c 77 1e 17 bd bd 34 22 39
       -0.06164803 0.026714863 -0.036894288 0.0001546917
0000c0 be 2d e6 bc 91 e2 81 3c f6 16 fc 3c 75 e4 91 3d
       -0.028097983 0.015855106 0.030772667 0.07123653
0000d0 8a f3 a2 bb 65 34 80 3d b4 3d 52 3d 50 42 08 bd
       -0.00497288 0.062599935 0.051328376 -0.033266366
0000e0 e9 4c c3 bd b4 7d a0 3d 80 f7 a1 3d 8c 95 e3 bd
       -0.09536154 0.07836476 0.07908535 -0.11112508
0000f0 d5 4a fe bc 5f c5 2d 3d 72 44 51 3d 02 51 44 3b
       -0.031041542 0.042424556 0.051090665 0.002995551
000100 c3 f0 76 bd 80 1c 1b bb 00 87 03 bc e1 6d 16 bd
       -0.060288202 -0.002366811 -0.008027792 -0.036725882
000110 d6 f5 bd bd 94 d1 6a 3d 07 1f 82 3d 35 4a 87 3d
       -0.09275405 0.057328776 0.06353574 0.06605951
000120 61 ae b3 bd e5 65 9e 3c 17 d9 87 bd 39 0a 88 bc
       -0.087734945 0.019335696 -0.066332035 -0.016606437
000130 11 32 71 3d d3 75 95 bd f2 35 9d bd e2 4c 1c 3d
       0.058885638 -0.07297864 -0.07676305 0.03815926
000140 c5 98 07 3c 33 ac ad bc 63 aa 47 3d 78 d0 6d bd
       0.008276169 -0.021200275 0.048746478 -0.05806014
000150 25 35 d9 3c 11 a5 4b bd 88 d4 a3 bd 09 77 d8 bd
       0.0265146 -0.049717966 -0.079995215 -0.10569579
000160 fe e1 77 3d 7a 7c 6a 3d 18 89 79 3d ea 1d 33 3c
       0.060518257 0.057247616 0.06092176 0.010932425
000170 85 e8 83 bc e3 97 47 bd c7 6c c0 bd 70 cc 5e 3d
       -0.016102085 -0.048728835 -0.09395748 0.054394186
000180 d6 0f 60 3d 34 55 7b 3d 58 39 85 bd 3c 1c ac 3c
       0.054702602 0.061360553 -0.06505078 0.021009557
000190 fc 4c 3c bd 48 db 32 3d ef 06 d5 3c af c9 1e bd
       -0.045971856 0.043666154 0.026004283 -0.03876656
0001a0 cc 7e b2 bd 86 b2 e2 bc fb c0 5c 3d 86 1a b0 bc
       -0.08715591 -0.027673017 0.053894978 -0.021497022
0001b0 a1 79 ca bd 25 ad 5c 3d aa 2b 88 3c 4c 38 7a bc
       -0.0988648 0.05387606 0.016622383 -0.015272211
0001c0 cd 1b 46 bd 4b 9c 97 bd 38 38 f0 3c 1d 7e 81 3d
       -0.048366357 -0.074028574 0.029323682 0.06322882
0001d0 e0 a3 4d bd c0 86 41 3d 86 74 d0 bd 9e 8a 31 3d
       -0.05020511 0.04724765 -0.10178475 0.043345086
0001e0 d3 a3 ee bd a1 04 d2 3c 90 f5 5c bd 47 f8 39 3c
       -0.11652341 0.025636973 -0.053945124 0.011350698
0001f0 99 97 4f 3d a8 a0 0a bd 5e 0b dc 3c e9 ae ba bd
       0.050681684 -0.03384462 0.026860889 -0.09115393
000200 a9 b5 58 bd 0f b3 9a bd e8 1e 06 3d 29 c1 69 3d
       -0.05290762 -0.07553684 0.03274432 0.057068978
000210 65 8b bf bc dc 72 dc 3c 40 77 82 3d b1 2c bd bb
       -0.023381898 0.026910238 0.063704014 -0.00577315
000220 77 6c ce bd 04 0a 9d bd ea 6c 1a bc 2b 57 ad bd
       -0.10079282 -0.07667926 -0.009425381 -0.084638916
000230 fa b6 b0 3d 80 cf f2 3b 6f 48 ec bc 6a 66 d5 bd
       0.0862865 0.00740999 -0.028843133 -0.104199246
000240 08 6e f0 bc bf c5 e9 3c 84 7b 15 3d 93 f7 39 3d
       -0.029349342 0.028536675 0.036494747 0.04540212
000250 38 58 ae bd 9b 72 12 bd 18 ec 10 3d f3 50 e9 3c
       -0.0851292 -0.035753828 0.035381407 0.028480982
000260 60 41 d1 bc 55 d7 db 3c ea 7d de ba c1 d6 4c 3d
       -0.025543869 0.026836077 -0.0016974781 0.050009493
000270 e3 ac d5 bd 6b c4 8c bc f3 fb b5 bd 32 5f 54 bc
       -0.10433366 -0.017183503 -0.08885946 -0.012962149
000280 13 fb c7 3d 23 b5 50 3d 0d cc ac bd c0 1e 74 bc
       0.097646855 0.050953995 -0.08437357 -0.0148999095
000290 a4 c9 ad bd 6b 23 c5 bd d6 05 3f bc 59 6f bf bd
       -0.084857255 -0.09625896 -0.011659106 -0.0934741
0002a0 aa 0b 8d bd 12 8d 34 bd bd 49 ba 3d e4 1e 41 bd
       -0.0688699 -0.044079848 0.09096096 -0.0471486
0002b0 2d 35 3e bd f9 fe b1 bd b9 8c b7 bb f6 b9 b3 bd
       -0.04643743 -0.0869121 -0.0056014922 -0.087757036
0002c0 8b ed 64 bd d2 14 74 bd df c4 ac 3d c2 1e 44 3d
       -0.0558906 -0.05959017 0.08435988 0.047880895
0002d0 ff 89 c6 3d 18 7d c3 3d 9b af 76 bc c6 d8 e1 bb
       0.096942894 0.09545344 -0.015056516 -0.0068922965
0002e0 0b 23 ab 3d 91 94 b3 bd c0 41 99 bd 11 49 a3 3d
       0.08356293 -0.08768571 -0.07483244 0.07972921
0002f0 78 27 25 bd 69 07 c3 bd bf 5c 64 3d be 46 dc 3d
       -0.040320843 -0.09522898 0.055752512 0.107556805
000300 70 6c c8 3c 17 69 be 3d ca 9b bf 3d a4 bb 3f bd
       0.02446577 0.09297388 0.09355886 -0.046809807
000310 76 7f 62 bc 47 a3 4e bd 56 b2 a9 bc df 57 ee bb
       -0.013824334 -0.050448682 -0.02071492 -0.0072736586
000320 df 59 97 bd c2 d6 89 3c 02 c8 7f 3c bb 31 ca 3d
       -0.073901884 0.016826037 0.01561165 0.098727666
000330 1e 45 00 bd 66 f1 cb bd 92 bd 35 3d e2 53 30 bd
       -0.031315915 -0.099581525 0.04437024 -0.043048747
000340 a5 e2 57 3d f1 af 9c bd 19 5d 35 3d 5d ee a9 bd
       0.05270638 -0.07650746 0.044278238 -0.08297417
000350 3a 19 02 3d 1d 5a 9b 3c d1 f2 b8 bd 37 1c 32 bd
       0.03176234 0.018963868 -0.090306886 -0.04348394
000360 e6 87 97 3d e3 74 8a 3d 13 ed 6b 3d eb 8c e1 bc
       0.073989674 0.067605756 0.05759914 -0.027533015
000370 62 fc 59 bd d5 ec fd bc 3e bc db bd ca ce 7f bd
       -0.053219207 -0.03099672 -0.10729264 -0.06245307
000380 d0 37 e9 3c b8 2b 9f 3c 54 5a 4a 3d 37 7c 3b 3d
       0.028468996 0.019430026 0.04940255 0.045772757
000390 05 0a 86 bd da 6e e7 3c e4 fa df 3c 3d f7 1d bd
       -0.0654488 0.0282511 0.027341314 -0.038565863
0003a0 00 4b c6 bd 59 60 81 bd f8 6b ae 3d 42 ea 5f 3d
       -0.09682274 -0.06317205 0.08516687 0.054666765
0003b0 f2 fb b3 3c e2 46 46 bd 98 70 85 bd 83 1b 85 3d
       0.021970723 -0.048407443 -0.06515616 0.06499388
0003c0 90 8f 28 bc c4 e7 eb 3c 03 62 4c bd 51 dd 0a 3d
       -0.010288134 0.028797038 -0.04989816 0.03390247
0003d0 99 4a 99 bd bc 37 37 bd 6b 69 c0 3d 9b a2 e6 3c
       -0.074849315 -0.044730887 0.09395107 0.028153708
0003e0 c8 00 88 bd 71 e5 b5 3d c8 dc 7c 3d c4 01 02 bd
       -0.06640774 0.08881653 0.06173399 -0.031739965
0003f0 67 af 9f bd 8e ce 80 3d d5 33 b7 3d 52 c3 20 bd
       -0.07797127 0.06289397 0.08945433 -0.039248772

sequential_4/conv2d_18/Conv2D f4 [32, 3, 3, 32]
000000 bc a5 e3 b9 70 2c a0 3d 76 d5 4e 3c 44 aa e9 3d
       -0.00043420296 0.07820976 0.012624135 0.11409429
000010 da d2 f7 bc 05 84 bc 3d c0 63 a4 bd 59 7a 9f bd
       -0.030251909 0.09204868 -0.08026838 -0.07787008
000020 18 12 19 3d b2 f2 e5 3d e0 79 e9 3d 47 3b f6 3d
       0.03737077 0.11227931 0.11400199 0.12023025
000030 b1 c5 37 bd 8b fe 31 bc dd 9e 59 bd 0c 07 08 3e
       -0.044866268 -0.01086391 -0.05313002 0.13283938
000040 12 e8 43 3d 64 4d 54 3c 3e 07 a6 3d e3 f8 df bc
       0.04782874 0.0129579045 0.0810685 -0.027340358
000050 f2 2a aa 3d 0e 3d bd 3d ad d9 80 bc 95 20 99 bd
       0.083089724 0.09240161 -0.015728796 -0.07476918
000060 89 61 d2 3d ce a8 ff 3d c0 c6 2a 3d 81 d2 32 3d
       0.102725096 0.12483369 0.04169345 0.043657783
000070 58 38 94 3d 01 0f 0f 3d 84 26 ae 3d 45 dd 45 3c
       0.07237309 0.03492642 0.0850344 0.012076681
000080 08 7e 71 bd b9 63 a5 3c 43 6e 82 bd e8 65 f4 3d
       -0.058958083 0.020189153 -0.06368687 0.119334996
000090 34 d1 70 bc be ec aa bb 9f 61 b8 3d 4b a9 e6 3d
       -0.014698315 -0.00521621 0.09002995 0.11262759
0000a0 42 f4 6e 3d b1 b7 ad bc 2e 69 eb 3d 6d d5 cd 3d
       0.05833841 -0.021205755 0.11494671 0.10050473
0000b0 59 e4 a0 3d 50 f4 a9 3d 69 3f 02 3e 69 4d 99 bd
       0.07856054 0.08298552 0.12719502 -0.07485468
0000c0 1b 4a fe 3d 6d 94 1d bb 90 d2 d5 bb 19 05 97 bd
       0.12416478 -0.0024044767 -0.006525345 -0.07374019
0000d0 f4 9d fc 3d 72 93 00 bd 37 9e d2 3d 69 61 95 bd
       0.12334815 -0.031390615 0.10284083 -0.0729397
0000e0 e6 55 40 bd 22 b4 65 bd 0b 41 6c bd 81 5a 57 bd
       -0.04695692 -0.05607999 -0.057679217 -0.052576546
0000f0 32 ae 92 bd 50 c3 0e 3d 38 32 7b 3d 53 fa 2e 3d
       -0.07162131 0.034854233 0.06132719 0.042719197
000100 63 28 3a 3c 71 85 7b 3d 02 ef 61 bd dc 4a f2 3d
       0.011362168 0.061406557 -0.055159576 0.118306845
000110 92 99 3c bd db 5e bb bc fb b4 8c bd b7 22 00 3e
       -0.046044894 -0.022872379 -0.06870457 0.12513243
000120 9c fe 78 bd 9c dd 8f bd 15 b9 c2 3d 82 95 59 3d
       -0.06078969 -0.070246905 0.09507958 0.053121097
000130 b6 93 45 bd bb 24 23 3e f4 5e 97 3d be dc 39 3d
       -0.04823657 0.1593198 0.07391158 0.04537653
000140 3c d3 bf 3d dd 06 a8 3d 70 3a 36 3d 13 b7 2f bc
       0.09366462 0.08204434 0.044489324 -0.010724801
000150 bc da 0c 3d d2 66 bc 3d 77 a2 1d 3d 0a 26 fc 3c
       0.03438829 0.09199299 0.038485017 0.030779857
000160 63 34 1f 3c 67 ef 18 bd 52 ae 18 bd 2d 54 2e 3d
       0.00971708 -0.037337687 -0.03727562 0.042560745
000170 49 cf 4a bd ee 41 09 be 58 e9 f2 bc 31 1a ad 3c
       -0.04951409 -0.13404056 -0.029652283 0.021130653
000180 d5 6c d4 3c d9 d7 be bc 5d 67 51 b9 27 90 11 bb
       0.025930801 -0.023296284 -0.00019970299 -0.0022211166
000190 2f 80 62 3d f1 3a 26 3d c3 20 85 3d 50 2f cb 3d
       0.055298027 0.040583555 0.065003894 0.099211335
0001a0 2c 54 44 bd 42 15 85 3d e3 c5 3c 3c 2b 33 7c bd
       -0.047931835 0.06498195 0.011521789 -0.061572235
0001b0 ef 9d 31 bd ec 2d 78 3d 0a 10 98 bd cf dc 09 3e
       -0.043363508 0.06059067 -0.07424934 0.13463138
0001c0 6b 12 7f bd 32 fd 84 bd f0 2a c5 3d c4 d3 2d bd
       -0.062273424 -0.06493606 0.0962733 -0.042438284
0001d0 b3 c8 62 3d 02 28 ee 3d 0c a6 48 3d 7a 13 c3 3d
       0.055367183 0.11628725 0.04898648 0.09525199
0001e0 8c f4 d4 bb c7 d8 5e 3c 4b e0 ab 3d 69 6d 84 3d
       -0.006498879 0.013601488 0.0839239 0.06466181
0001f0 54 7e 9a bc f4 a5 32 3c 41 40 d3 3d 08 30 25 bd
       -0.018859066 0.010903824 0.1031499 -0.04032901
000200 75 5d 98 bd e7 aa c1 3d 5f 53 36 bd 60 c2 c0 3d
       -0.074397005 0.09456425 -0.044513103 0.09412074
000210 e3 9c ea 3d 58 f5 38 3d 8f cf 02 3e 7a fe 2d 3d
       0.11455705 0.045155853 0.1277449 0.042479016
000220 d3 60 29 3d fc 97 37 bd c1 1b 85 3d b6 07 d3 3d
       0.041352104 -0.044822678 0.06499434 0.10304205
000230 07 d9 f6 3c a7 6b fb 3d 0e 5e 4e 3c 89 d1 99 bd
       0.030132784 0.122763924 0.012595667 -0.07510669
000240 78 be 8c bd 47 46 b8 bd 32 7d ba 3d 8e 49 c4 3d
       -0.068722665 -0.08997779 0.0910591 0.09584342
000250 d1 3f e2 3d a3 00 a1 bc 0f 91 8a 3d 8c cb 94 3d
       0.11047328 -0.019653624 0.06765949 0.07265386
000260 3d ea 12 3c dd da 3c 3d 36 cb 9c bc 35 5c f4 3d
       0.00896698 0.04610716 -0.019139867 0.119316496
000270 a4 0f c8 3d 12 44 e9 3d cf 24 f8 3d c4 c7 e7 3d
       0.09768608 0.113899365 0.12116396 0.11317399
000280 0a e0 5a bd 59 74 cc 3d a0 b5 d0 3c 45 49 32 3d
       -0.053436317 0.09983129 0.02547723 0.043526907
000290 19 d3 05 3c 2b f7 05 3e d1 b3 a3 3d c9 c5 9c 3d
       0.008168005 0.13082568 0.07993282 0.07654912
0002a0 7e 77 f3 3d e9 d5 c6 3c 0f c2 b8 3d e9 5a 67 bd
       0.11888026 0.024271922 0.09021389 -0.056483183
0002b0 7b 83 36 3d 8c f6 2b 3e ff 57 21 3d 9a c1 d0 bc
       0.044558983 0.16793269 0.03939056 -0.025482941
0002c0 d7 a0 ad 3d 56 b4 a6 3d d6 9b 9b bd d7 ae 27 bd
       0.084779434 0.08139865 -0.07598083 -0.040938225
0002d0 56 08 2a 3d 20 ef de 3d 4e da 10 3c 2b 36 88 3a
       0.041511856 0.10885453 0.00884111 0.001039212
0002e0 63 6b 59 bd d2 a5 03 3e 40 f0 ef 3d 13 dd 17 bd
       -0.053080928 0.12856224 0.11715746 -0.037076067
0002f0 d0 52 88 bd bc 2d de bc c5 d8 c7 3d 7f 93 8f 3d
       -0.0665642 -0.027121417 0.097581424 0.070105545
000300 2b db 10 3d 73 bc d9 bc c1 27 87 bd e7 c9 b4 bb
       0.035365265 -0.026579117 -0.06599379 -0.0055172327
000310 84 4e bf bd ff 02 7f bd 8f f5 70 bc 84 ba 87 bb
       -0.093411475 -0.062258717 -0.014706983 -0.0041421074
000320 d6 38 30 bd 03 66 bc bc 6d 4a 8f bd d4 4e 18 3b
       -0.043022953 -0.022997862 -0.069966175 0.0023240345
000330 30 ad 4a bd f1 d3 c7 3d ac f7 b9 3d 4e 7d c2 3d
       -0.04948157 0.097572215 0.09080443 0.09496556
000340 a4 76 db 3d 0d 88 04 bb 0c b1 93 bc a5 44 8d 3d
       0.10715988 -0.0020222694 -0.018028758 0.068978585
000350 21 cb ac 3d ea 3e 0c 3d ec 20 f0 bd bd 70 b5 3d
       0.08437181 0.034239687 -0.11725029 0.08859394
000360 a1 2b 65 3d ce d2 84 bd 2f 87 b5 3d fb 70 aa 3d
       0.05594981 -0.0648552 0.08863675 0.083223306
000370 98 d9 29 bc 61 a2 6b bd 07 f2 56 bd 82 b6 03 3d
       -0.01036682 -0.057527903 -0.05247691 0.032156475
000380 4a aa 3d 3c 23 de a0 3c 68 90 0f 3d 7d 70 1f 3c
       0.011576245 0.019637173 0.035049826 0.009731409
000390 98 f5 08 3d a3 52 01 3e ee 23 a0 bc db 17 53 bd
       0.03343734 0.1262918 -0.019548383 -0.051536422
0003a0 43 c6 aa 3d 43 c3 5e 3d fd 44 71 3d 0c 4a 45 bc
       0.08338597 0.054385435 0.058903683 -0.01204158
0003b0 7c d4 75 bd 32 e3 82 3c 50 0d 3e 3d 45 41 c0 3d
       -0.060017094 0.015977476 0.046399415 0.09387449
0003c0 97 72 c2 3d dd 24 50 3d 19 98 ad bd 33 3c 09 bd
       0.094945125 0.050816406 -0.08476276 -0.033504676
0003d0 e2 5f 47 bd 57 9b 47 3d 03 bc 77 bc 4b 48 f4 bc
       -0.048675425 0.048732128 -0.015120509 -0.029819628
0003e0 5b d0 d2 3b 42 bb de 3a a3 d5 01 3d 87 f5 b3 3c
       0.0064335293 0.0016993063 0.03169788 0.021967662
0003f0 de 4d aa 3d b3 4c 61 bd 77 ef 34 bc 1d 4d d3 bd
       0.08315633 -0.055004787 -0.011043421 -0.103174426

sequential_4/dense_9/BiasAdd/ReadVariableOp f4 [4]
000000 9a 34 72 3c e8 1a 11 bc 3a 77 fa ba d7 f0 ab bb
       0.014783049 -0.008856513 -0.0019109019 -0.005247216

sequential_4/dense_8/BiasAdd/ReadVariableOp f4 [128]
000000 e9 55 d3 3a 00 00 00 00 c5 7a 95 3c 00 00 00 00
       0.0016123626 0.0 0.018247018 0.0
000010 fd 33 25 3c ea 59 6e bb 8c b4 08 bc da 6c 14 3c
       0.010083196 -0.003636951 -0.008343827 0.009059155
000020 a0 66 4d bc 71 de b7 3c 03 fe dc 39 34 19 80 bc
       -0.012536675 0.022444936 0.00042150923 -0.015637018
000030 f9 b2 8a 3c aa da 86 b9 d3 d7 86 bb 36 24 02 bc
       0.016931044 -0.0002572139 -0.0041150837 -0.007943204
000040 ff 11 31 3c 1b 0c c8 3c 44 bf f9 bb 78 87 c9 3c
       0.010807513 0.024419835 -0.0076216776 0.02460073
000050 39 03 89 3c 0b 15 de bb 82 49 17 bc e4 cd 44 3b
       0.01672517 -0.006777411 -0.009233834 0.0030029947
000060 00 00 00 00 06 b3 91 3c 00 00 00 00 75 c6 c4 bb
       0.0 0.01778556 0.0 -0.0060051032
000070 c6 8a fe bb 52 f4 73 bb 4e e8 94 bb fe 94 1f bc
       -0.007768008 -0.0037224484 -0.0045442944 -0.009740112
000080 3c 12 79 3c 41 99 e6 bb 2f 77 2c 3c 00 00 00 00
       0.015202101 -0.0070373123 0.010526462 0.0
000090 ff bc 68 3c 4d 3f 3e bc ce 15 5b 3c 15 63 55 3c
       0.014205216 -0.011611772 0.013371898 0.013024111
0000a0 2d 4a ec bc 11 44 18 bc 80 8b 33 3c 79 2c 15 bc
       -0.028843964 -0.009293572 0.010958552 -0.009104841
0000b0 79 a8 8a 3c ce 37 39 bc 59 32 d1 bb 3b fa 75 3c
       0.016926037 -0.011304809 -0.0063841757 0.015013273
0000c0 18 66 db bb e7 a2 bf 39 ba 12 78 bc 37 fb 51 3c
       -0.00669552 0.0003655173 -0.0151411835 0.012816242
0000d0 3a cc 30 bc 26 aa 91 3c 93 8b 0e bc af 71 d4 3c
       -0.010790879 0.017781328 -0.008700269 0.025933115
0000e0 35 52 d9 3c 2a 6a b6 3c 85 a8 5e 3c 7a 52 6e bc
       0.026528457 0.02226742 0.013589983 -0.014546031
0000f0 b8 dd 8a 3c 6b 79 42 bc f0 9d 15 3c 00 00 00 00
       0.016951427 -0.011869769 0.0091318935 0.0
000100 36 ed 9d 3b d1 9f d6 3b 6c b1 d0 bb f3 7b 8d bb
       0.0048195375 0.0065498133 -0.0063688066 -0.0043177544
000110 a9 9a c4 bb 25 6d ae bb e7 86 87 bc 0f c3 1c bc
       -0.0059998822 -0.0053230696 -0.016543819 -0.00956799
000120 3c 00 64 bc 7d 76 82 3c a8 82 b2 bc 96 c7 c4 bb
       -0.0139160715 0.01592564 -0.021790817 -0.006005238
000130 af 8f 17 3c 76 4c be 3b 18 46 54 bc 34 a3 29 bb
       0.009250565 0.0058074547 -0.012956165 -0.002588463
000140 0e 13 7a bb 14 72 ad 3c 08 3f 08 3c 00 00 00 00
       -0.003815833 0.02117256 0.008315809 0.0
000150 06 b5 19 bb 32 7c 81 bc 67 a6 c2 3c 88 cc ee bb
       -0.0023453846 -0.015806291 0.023760987 -0.0072875656
000160 c9 e5 0f 3c f4 e4 a7 b9 56 30 05 3a 03 db 5c 3c
       0.008782812 -0.00032023306 0.000508075 0.013479951
000170 3f 5e 8b 3b d3 20 92 bb 67 8a a4 3c 53 a2 c4 bb
       0.0042531784 -0.0044594794 0.020085527 -0.006000796
000180 81 47 26 bc 29 0c b4 3c ab 00 09 bc b0 e5 05 bc
       -0.010148884 0.021978455 -0.008361976 -0.008172438
000190 00 00 00 00 42 28 58 3b 1e f8 1c 3c d5 6e cd bb
       0.0 0.003298298 0.00958064 -0.0062693157
0001a0 3f c2 70 3c de f2 b0 3b e2 bf 24 bc 0e d7 a9 3c
       0.014694749 0.005400046 -0.010055514 0.020732429
0001b0 7a bd f4 bb 00 00 00 00 94 97 ae bc 2c ba f0 3a
       -0.0074688764 0.0 -0.021312512 0.001836603
0001c0 f9 5d 86 3b f8 75 9e 3c 00 00 00 00 8b ef d0 3c
       0.004100558 0.019343361 0.0 0.025504848
0001d0 25 66 e2 3b 84 fe 26 3c e5 3d 34 3c 00 00 00 00
       0.0069091492 0.010192517 0.011001085 0.0
0001e0 bf ef c9 3c f4 ec a2 bb cd d5 97 3c d6 e8 6e 3b
       0.024650453 -0.0049720947 0.018534565 0.00364547
0001f0 9b 74 01 3c b1 89 47 bc 07 95 59 3c 2d f2 4f 3a
       0.007901336 -0.012178824 0.01328016 0.00079325103

sequential_4/dense_8/MatMul f4 [128, 128]
000000 b2 64 63 3d c6 ad 09 be e0 65 2b bc f5 df 4d 3d
       0.055515952 -0.13445196 -0.010461301 0.05026241
000010 e4 ab 04 3e 2f e5 65 3d 46 87 86 3d 90 ae 68 bc
       0.12956196 0.05612677 0.0656877 -0.014201775
000020 13 0f 86 3c e0 49 ae bb 80 83 72 bb bd 91 c2 3d
       0.01636461 -0.005318865 -0.003700465 0.095004536
000030 13 c7 f3 3c f2 7b 06 be 35 cb 57 3d e8 6e 0b be
       0.029758012 -0.13133219 0.052684028 -0.13616526
000040 21 a7 c3 bd 87 e5 8d bd 1a c4 ff bd 70 2b 1e 3d
       -0.09553362 -0.069285445 -0.12488575 0.038615644
000050 c0 2a 43 bd 46 79 1a be 40 45 40 3c a5 63 53 bc
       -0.04764819 -0.15085325 0.0117352605 -0.012902175
000060 9e d0 32 3d c4 84 72 bd 95 20 e4 bd 94 54 c9 bd
       0.043655984 -0.059208646 -0.11139027 -0.09830585
000070 2f 05 77 bd cd e9 1b be 33 84 f9 bc 7f 39 18 3e
       -0.060307678 -0.15225907 -0.030458545 0.14865683
000080 55 7d 00 be b6 1a c0 3a da d6 db 3d 37 07 91 39
       -0.1254781 0.0014656398 0.10734339 0.0002766193
000090 fa d1 27 bd 13 0f b2 3d da 9e f0 3d 80 6a 2b 3b
       -0.040971734 0.086942814 0.117490485 0.0026156008
0000a0 0e 2b 0a be 6c 7b b1 bd a8 82 d9 3c dc df d3 bc
       -0.13492987 -0.08666119 0.02655156 -0.02586358
0000b0 43 ff 1c be f0 fa f6 bd 74 3f 96 3a 25 60 0c bb
       -0.1533175 -0.12059581 0.0011463002 -0.0021419611
0000c0 60 16 ef 3b 19 39 89 3d 18 e7 f3 bc 90 63 c3 3c
       0.0072963685 0.06700344 -0.02977328 0.023851186
0000d0 9e 90 2f bd c0 95 bd bd 45 32 f4 3d 15 c9 b7 bd
       -0.042862527 -0.09257078 0.11923651 -0.089739
0000e0 3b 79 39 ba 79 84 17 3e 5b 9d ee 3d a8 cc 16 3d
       -0.00070752547 0.14796628 0.11651107 0.03681627
0000f0 54 0a df bd 84 dc 0d 3e 72 0b 57 bc 85 6a 11 be
       -0.10890642 0.13853651 -0.013125287 -0.1420079
000100 f9 d4 ef bd e0 9b b4 bb 2c 2d 1a 3d 2b 30 45 3d
       -0.11710543 -0.005511746 0.037640736 0.04814164
000110 d8 57 ce bd f8 1f 8a 3c 12 5f 94 bd f8 73 e6 3c
       -0.100753486 0.016860947 -0.07244696 0.02813147
000120 bf 50 31 bd c4 8f ed 3d 28 a2 b4 bd 32 ea 38 bd
       -0.043289896 0.11599687 -0.08819991 -0.04514522
000130 33 d7 dd bb 49 12 0a 3e ee 60 13 be de c7 83 3d
       -0.0067700385 0.13483538 -0.14392444 0.06434606
000140 bf 05 0d 3e 25 6b 0e 3d 56 fd 7a 3d 65 f9 07 3e
       0.13771723 0.03477015 0.061276756 0.1327873
000150 42 81 ac bd 28 67 f1 bd 96 97 95 bd 65 79 26 3c
       -0.084230915 -0.117872536 -0.07304303 0.010160779
000160 9f 56 a0 bd 5c da 01 be 28 96 0c 3d cb ea 06 be
       -0.07829022 -0.12680954 0.034322888 -0.13175504
000170 76 57 c8 bd 46 cb e5 bd 5b a4 1b 3e 22 da 81 bd
       -0.09782307 -0.11220412 0.15199415 -0.06340434
000180 aa d7 d7 bd 22 d3 b3 3d c0 81 aa bc 42 60 81 3d
       -0.105391815 0.08780505 -0.020813823 0.06317188
000190 cb 55 2d bd 6b 4f d2 bd 8c b4 49 bd 60 76 2b 3c
       -0.042318147 -0.10269054 -0.04924445 0.0104652345
0001a0 b4 f7 d1 bd 45 6c 0d 3e d8 4f 91 3d 20 bd f4 3c
       -0.10252324 0.13810833 0.07095307 0.029875338
0001b0 fa ab 1e bd 17 00 0d 3e 53 84 5e 3d 81 34 a6 bd
       -0.03873823 0.13769566 0.054325413 -0.08115483
0001c0 0c 3b 21 3d 9d cd 78 3d dd 0f 8b bd 98 8d d3 bc
       0.039362952 0.060742963 -0.06790135 -0.025824353
0001d0 a1 e5 12 be d0 65 b8 bc c6 9c eb bc 36 4d 08 3e
       -0.14345409 -0.022509485 -0.028761279 0.13310704
0001e0 55 70 c3 bc 8e d6 86 bd ed fb f6 bd e2 8b d7 3d
       -0.023857275 -0.06583892 -0.1205977 0.105247274
0001f0 6d ba 89 3c ac 76 a7 bd 36 74 1e 3d 94 c7 f2 bd
       0.016812528 -0.08176932 0.038685046 -0.11854473
000200 30 dc c4 bd 68 84 88 3d b0 d5 00 3d 82 54 3c bd
       -0.0961231 0.066658795 0.03145379 -0.04597903
000210 f0 1d 34 3c c8 ee 5e bd 3c 63 13 be 5d 99 1c be
       0.010993466 -0.05442694 -0.14393324 -0.15292878
000220 0e 28 d2 3d bb 7f 10 3e ae 23 d4 3d e4 1c 4b bd
       0.10261546 0.14111225 0.10358368 -0.0495881
000230 46 09 13 bd 83 0a 85 bd 72 94 02 be 12 3b c9 bd
       -0.035897516 -0.064961456 -0.1275194 -0.0982572
000240 49 fb 14 3e 13 17 fd bd 78 ef b0 bd d4 ec 66 bd
       0.14548983 -0.12357917 -0.08639425 -0.0563782
000250 c0 db 10 3d e4 72 1d bd c0 78 bc bd 10 c5 04 be
       0.03536582 -0.038439646 -0.09202719 -0.12965798
000260 c7 6d 14 be 0a 72 9e bd 36 04 fe 3d 78 ce 97 3c
       -0.14495002 -0.07736595 0.12403147 0.01853107
000270 1e a1 a2 bd af e6 17 be 42 fa a6 bd 2c dc 2f bd
       -0.07940887 -0.14834093 -0.08153202 -0.04293458
000280 72 04 bd bd e5 7f 1b 3e 82 93 18 be 09 2d 0f be
       -0.092293635 0.15185507 -0.1490002 -0.13982023
000290 57 de 91 bd dd 35 00 be fa 7c ee 3d 6b 1a 00 3e
       -0.07122486 -0.12520547 0.11644931 0.12510078
0002a0 80 80 e1 3c 30 e6 40 bc 0e 02 c3 3d 1f 7d 0d be
       0.027527094 -0.011773631 0.09521876 -0.13817261
0002b0 20 b6 e5 bb 0a 39 5c bd 98 e9 64 3d b2 4b 3f bd
       -0.0070102364 -0.053765334 0.055886835 -0.046703048
0002c0 2b 5a 88 bd 9a 0e ee 3d 02 16 d9 bd b6 f7 fb 3d
       -0.06657823 0.11623879 -0.10599901 0.123031065
0002d0 df e3 17 3e 00 63 e6 ba c6 08 ef bd a0 e8 79 3d
       0.1483302 -0.0017577112 -0.11671595 0.061012864
0002e0 00 86 69 ba 68 f4 0a 3d d0 c4 08 3d c0 fd 1f 3c
       -0.0008908212 0.03392449 0.03339082 0.009765089
0002f0 9a be ab bd b9 f2 cd bd 9d b9 d4 bd 02 5c f9 3d
       -0.08385964 -0.10056061 -0.103869654 0.12175752
000300 14 f5 2b 3d 40 c8 44 3b 00 48 f9 3b 5d 90 0b 3e
       0.04198177 0.0030026585 0.00760746 0.13629289
000310 ac 92 7a 3d 66 58 05 bd a2 bc d9 3d 61 54 0a be
       0.061175033 -0.032555006 0.10631682 -0.1350875
000320 c0 70 f0 bd 15 52 8b bd f2 4b 32 bd f8 51 be bc
       -0.11740255 -0.06802765 -0.04352946 -0.023232445
000330 28 49 3a bd 82 68 db bd ba d2 fd bd a9 59 05 be
       -0.045479923 -0.10713293 -0.123937085 -0.13022484
000340 28 45 d7 bc e8 a6 ef 3c 88 cf 9d bd 72 5c f6 3d
       -0.026278093 0.029254392 -0.07705599 0.12029351
000350 76 37 07 be d0 36 64 3d cf 0f 12 3e 3c 38 77 3d
       -0.1320475 0.055716336 0.14263843 0.060356364
000360 4e 61 82 bd d0 c8 b4 bd 5e b0 bb 3d 4f 8e 15 3e
       -0.06366216 -0.088273644 0.09164499 0.14605068
000370 10 5f aa 3d 92 7f bd bd b0 0d 79 3d 16 c1 de 3d
       0.08318913 -0.09252848 0.06080407 0.10876672
000380 39 9f eb bd b4 49 15 bd a4 19 53 3d 98 0a 7d 3d
       -0.11504979 -0.036447242 0.051538125 0.06177768
000390 80 47 68 bc 4b c1 03 3e b8 0a 67 bd b8 06 1a be
       -0.014177203 0.12866704 -0.056406707 -0.15041625
0003a0 24 2b ed bd 52 88 62 bd a4 0b 85 3d 70 89 93 3c
       -0.11580494 -0.055305786 0.06496361 0.018009871
0003b0 30 d3 a0 bc 00 71 a4 bc 2b e6 13 be 90 88 06 be
       -0.019631952 -0.020073414 -0.14443271 -0.13138032
0003c0 22 af 99 bd 08 89 ca 3c a7 a1 0c 3e c2 27 cd bd
       -0.07504107 0.024723545 0.1373354 -0.10017349
0003d0 1d b8 01 3e 94 06 01 be 9e 08 0a be 4a 7c cd 3d
       0.1266789 -0.12600166 -0.1347985 0.10033472
0003e0 8e e9 dc bd 1a 07 f3 3d ec 07 57 3d 2e 10 09 bd
       -0.107867345 0.11866589 0.05249779 -0.033462696
0003f0 f8 9d 51 3d 38 94 a0 bd ae ea 5e bd c0 5d 58 bb
       0.05117604 -0.078407705 -0.054423027 -0.0033014864

sequential_4/dense_9/MatMul f4 [4, 128]
000000 23 c9 51 be f0 44 a3 bc 7c 67 7f be 7a 43 3b 3e
       -0.20486884 -0.019930333 -0.2494182 0.18287459
000010 c9 50 5e 3d 9d 01 a8 bd 56 e7 60 3c ea 29 8a 3d
       0.05427626 -0.08203433 0.01372703 0.06746276
000020 02 53 3b bd a8 ea a0 3d 16 1f a9 bc ac 85 08 3e
       -0.04573346 0.07857257 -0.020644706 0.13332242
000030 08 5d 77 3c 36 63 d8 bd 5c fd 20 3a 08 f3 47 be
       0.015097864 -0.10565798 0.0006141269 -0.19526303
000040 da ac 7a 3b 5f 1b f2 3d f2 e2 77 3d 21 80 72 bd
       0.003825 0.11821627 0.060519166 -0.059204224
000050 d3 fc 74 3d 5b 66 81 be 0d a3 05 3c cb b2 75 be
       0.059811424 -0.25273404 0.00815655 -0.23993985
000060 e4 93 b1 3d 90 30 2f 3e 7e 50 07 be 07 85 19 3e
       0.08670786 0.17108369 -0.13214299 0.14992152
000070 49 be 22 3e be 6e 70 bd f9 f6 d4 bc 59 cc 1e be
       0.158929 -0.058699362 -0.025996672 -0.1550764
000080 8b 2b 62 3e 66 00 a6 bd cd 0e e1 bc d4 6b b9 3d
       0.22086923 -0.08105545 -0.027472878 0.0905377
000090 24 1a 13 3d 92 c6 4b 3d 39 58 40 be 2a 05 85 b8
       0.0359136 0.04974992 -0.18783654 -6.342896e-05
0000a0 f0 ee 58 be 8c 9c 38 3e 2a 51 16 3e 91 5d 37 be
       -0.21184897 0.18028468 0.14679399 -0.17906787
0000b0 80 34 80 3e 44 5d 25 be 21 b9 58 bd ee 3a 61 3e
       0.25040054 -0.1614886 -0.052910928 0.21995136
0000c0 0a aa 1e 3e 2c 94 f0 bd ce 6b cb bd f6 99 fc 3d
       0.15494552 -0.117470115 -0.099326715 0.12334053
0000d0 84 78 0c be 0d ff 22 bd 61 1a 45 bc 08 a9 90 3d
       -0.13717848 -0.039794017 -0.012030215 0.0706349
0000e0 af ba 0d 3e eb 2f b3 3d 25 cc 0e 3e 10 af 94 bd
       0.13840745 0.08749374 0.13945062 -0.07259953
0000f0 4a 55 91 3d ab 58 37 3e c6 8e ec 3d d8 69 4c bd
       0.07096346 0.17904918 0.11550669 -0.049905628
000100 ed 89 0b be 3b 65 c6 3d df 0f 18 be 08 38 47 bd
       -0.13626833 0.09687277 -0.14849804 -0.04863742
000110 e5 e7 4b 3e e8 df 31 be 37 57 b9 bd d4 cb 4e be
       0.1991268 -0.1737057 -0.09049838 -0.20194942
000120 60 90 27 be 38 ae 47 3d fc 14 23 be d7 d5 46 3e
       -0.16363668 0.048750132 -0.15925974 0.19417511
000130 ef 2e 0e bb f4 3a 97 3d 3d e4 3b be 1d c6 3f bc
       -0.0021695455 0.07384291 -0.18348785 -0.011704949
000140 6a 23 80 3c 10 83 a9 3d d8 e5 84 bb c8 e4 44 be
       0.015641887 0.08276951 -0.00405572 -0.19227898
000150 9a 6e 3a 3e 0a b1 ee bd 2d 0b db 3c 3b 2b e4 3c
       0.18206254 -0.11654861 0.026738727 0.027852645
000160 0e a4 90 bd da e0 17 be 32 01 5e be 8c ba 27 3d
       -0.07062541 -0.14831868 -0.21680143 0.04094939
000170 9c e1 95 bd 97 4f 84 3d 7d a5 0d 3e 86 d0 4d be
       -0.07318422 0.06460493 0.1383266 -0.20099077
000180 71 07 35 be a3 be 7f 3d dd 30 4c be 13 dd 1d be
       -0.1767862 0.062437665 -0.19940515 -0.15416364
000190 a0 16 2e 3e 08 0e 87 bd 91 39 14 3e 1e b7 88 3d
       0.17000818 -0.06594473 0.14475085 0.06675552
0001a0 6b f7 20 3e 93 96 91 3d 8e 8f db bd cb e9 3e 3e
       0.15719382 0.07108798 -0.1072074 0.18643872
0001b0 f5 71 4e be 8e ce c6 bd ee 3c 08 bd eb 59 d0 bd
       -0.20160659 -0.09707366 -0.033261232 -0.101734005
0001c0 77 0d a1 bd 40 00 0a 3e 98 b9 0b 3d 38 c0 b5 ba
       -0.07863896 0.13476658 0.034112543 -0.001386649
0001d0 3a 1a e1 3d 43 04 df 3c 7d 99 05 3e 00 d6 0d be
       0.109913304 0.027223712 0.13046832 -0.13851166
0001e0 94 15 47 3e 3d 47 3b be d6 77 be 3d 36 8d ef 3d
       0.19441825 -0.18288894 0.09300201 0.11696856
0001f0 50 21 f5 3c 8b 30 10 be d3 b4 a9 3c a8 b5 d2 3b
       0.029923111 -0.14081018 0.020716107 0.0064303465
000200 5f 39 da bd 70 df dd 3d c1 b8 03 be 6e f0 26 3e
       -0.10655474 0.10833633 -0.12863447 0.16302654
000210 78 b1 01 be 8b f4 71 3d ef 90 67 3e 10 58 40 3e
       -0.12665355 0.059071105 0.22613882 0.18783593
000220 80 ba 04 3e 12 61 ea bd 92 77 94 3d 2e df 17 3e
       0.12961769 -0.11444296 0.07249369 0.1483123
000230 97 57 40 bd 2d 21 ea bd 83 a9 41 3e ee 39 83 3d
       -0.046958532 -0.11432109 0.1891232 0.064075336
000240 c1 dd 3d be 62 4a d5 b9 02 99 51 3c 11 ba 5b be
       -0.18541624 -0.00040681945 0.012792828 -0.21457697
000250 5a 9f 20 be 1d 23 1a 3d 1d 60 8b bd 9d cf 90 bd
       -0.15685788 0.037631143 -0.068054415 -0.07070849
000260 80 ef 21 bd 29 68 b7 3d f0 16 35 3e 3e 2e ef bd
       -0.039535046 0.08955414 0.17684531 -0.11678742
000270 08 a9 34 3e 0d 4d 92 bd b4 ed bd bd d0 57 d5 bd
       0.17642605 -0.071436025 -0.09273854 -0.104171395
000280 22 03 b8 3d a6 23 2a be b7 0f 97 bd 4a 77 42 be
       0.089849725 -0.16615161 -0.07376044 -0.18990818
000290 4f 37 89 3d 14 91 d3 3d 37 8a 9d bd 5e 53 27 bd
       0.067000024 0.10330406 -0.07692378 -0.04085099
0002a0 b6 d2 2b 3e a9 6c 22 3e ba 52 69 bc a2 c3 e0 3d
       0.16779599 0.15861763 -0.014240915 0.10974814
0002b0 a3 2c 7d be 0b ed 26 3e e5 7d 36 be e7 27 3d 3d
       -0.24724059 0.16301362 -0.17821462 0.046180632
0002c0 09 65 83 bd 42 8a 2a 3e fd 5d 1b be be 05 77 bd
       -0.06415755 0.16654304 -0.15172572 -0.06030821
0002d0 4a 8f bd bb 99 30 f1 3c 9b 79 18 be 2c 64 88 bd
       -0.0057849037 0.029442118 -0.14890139 -0.06659731
0002e0 53 f4 1d be 0a d4 23 be a9 b8 e6 3d ee 23 0a be
       -0.15425234 -0.15998855 0.1126569 -0.13490269
0002f0 c5 96 8c 3d e2 1d b2 bd c8 a9 f7 bd 00 50 35 3a
       0.068646945 -0.08697106 -0.1209293 0.0006916523
000300 74 15 85 bd 91 f7 45 3d 79 7b 30 3e 27 06 55 3e
       -0.064982325 0.0483318 0.17234601 0.20803128
000310 4e 6f 44 be b9 5a ba bc 1e c9 d9 3c 69 bc 48 3e
       -0.19183084 -0.022748338 0.026585158 0.19603123
000320 4e c9 4c 3e b1 a2 74 be ef 94 07 be 56 be a7 bd
       0.19998667 -0.23890187 -0.13240407 -0.081906006
000330 e1 59 cf bd 09 93 1c be 0b ec 26 bd 02 1c 2e 3c
       -0.10124565 -0.15290464 -0.040752452 0.010626795
000340 1a 8a 25 3e 3f 79 44 be b1 00 cf bd dc f3 a3 3d
       0.16165963 -0.19186877 -0.10107554 0.08005497
000350 c5 0e 39 3e 18 36 04 bd a0 50 fd bc 34 55 b8 bc
       0.1807204 -0.03227815 -0.030922234 -0.022501566
000360 79 10 a5 bd 08 61 a7 3c 16 65 23 be de e8 71 be
       -0.080597825 0.02043201 -0.1595653 -0.23623988
000370 91 eb a4 bd f0 3a 43 3d 5b 70 5d bd 44 ea 2e 3e
       -0.08052743 0.04766363 -0.05406223 0.17081553
000380 ea d6 3a bd a8 21 43 be f4 5e 11 3e df 9a bc 3d
       -0.045615114 -0.19055808 0.14196378 0.09209227
000390 68 f1 bf 3d 1c 35 c5 3c 44 e3 58 be 2a d9 d0 bd
       0.093722165 0.024073176 -0.21180445 -0.10197671
0003a0 8b 8c 30 bd ea 1b fc 3b 0b 2c 07 be cc af c6 3c
       -0.043102782 0.0076937573 -0.13200395 0.024253748
0003b0 62 7d d4 3d 3b be 32 be d5 52 20 bd 51 60 fd bc
       0.103754774 -0.1745538 -0.039141495 -0.030929716
0003c0 9a c5 1c 3d fa 7b 1f be 4c 84 91 3d 34 1f 5d be
       0.038274385 -0.15574637 0.07105312 -0.21593934
0003d0 c7 46 9f bc f3 2d 10 bd a3 15 26 3e f8 46 0d 3e
       -0.019442929 -0.03520007 0.16219191 0.13796604
0003e0 2e 71 2c bd 90 90 b7 3d 0a 58 0d be 01 bf 07 3e
       -0.042100124 0.0896312 -0.13803115 0.13256456
0003f0 06 6d b7 bd 38 5c bd bb 2f 3c 2f be f4 cb b5 3d
       -0.089563414 -0.0057788156 -0.17112802 0.088767916
